model.pt (torch, 267579 bytes, 13 tensors)

att_encoder.h_n f4 [1, 120, 60]
0	0xbcb2ef73	-0.021842694
1	0x3d3486b5	0.04407378
2	0xbc9a7af9	-0.018857466
3	0x3b7ba8f2	0.003840026
4	0x3df3b20a	0.11899193
5	0xbb2ce854	-0.0026383596
6	0xbdbde64f	-0.092724435
7	0x3deb110d	0.114778616
8	0xbcd67594	-0.026179112
9	0x3db94b89	0.0904761
10	0xbd84e595	-0.06489102
11	0xbcd16310	-0.025559932
12	0x3d506f71	0.05088753
13	0x3d59510c	0.053055808
14	0x3c4c6b52	0.012476759
15	0x3b753f5c	0.0037421798
16	0xbd5160cf	-0.051117714
17	0xbd4e40d1	-0.050354782
18	0xbc9669d1	-0.018361004
19	0x3cc6b8aa	0.024257977
20	0x3d69cd9e	0.057080857
21	0x3ca5fce7	0.020262195
22	0xbd7e9f23	-0.062163483
23	0x3cde7f90	0.027160436
24	0xbd9dec29	-0.077110596
25	0x3c4aa565	0.012368535
26	0xbc681a82	-0.014166476
27	0xbd2a1737	-0.041526046
28	0xbb651031	-0.0034952278
29	0x3d0b6b61	0.03403795
30	0xbcb6ef63	-0.022330945
31	0x3cfb2d1d	0.03066116
32	0x3d76fa2d	0.06029718
33	0x3d32ccdb	0.043652397
34	0x3ce6db02	0.028180603
35	0xbd817613	-0.06321349
36	0xbd89a9e4	-0.06721857
37	0xbccb8fd3	-0.024848854
38	0xbbc85c75	-0.0061145374
39	0x3defc4dc	0.1170747
40	0x3ca33e2a	0.019927103
41	0xbd13a1d3	-0.036043
42	0x3ad33e70	0.001611663
43	0x3c627b1e	0.013823299
44	0x3b424de6	0.0029648482
45	0x3d0bcd0c	0.034131095
46	0xbd597097	-0.05308589
47	0x3d810105	0.062990226
48	0xbd8db67c	-0.06919572
49	0xbcb106b7	-0.021609647
50	0x3cbd8f82	0.023139719
51	0xbcac244c	-0.021013401
52	0x3d021f46	0.031768106
53	0x3b44d8d5	0.0030036469
54	0xbdabe11e	-0.08392547
55	0x3d33096a	0.04371015
56	0x3c4714ef	0.012150987
57	0xbda4beab	-0.080441795
58	0xbd410f08	-0.047133476
59	0xbc800a5b	-0.015629938
60	0xbcb22c4f	-0.021749644
61	0x3d355622	0.044271596
62	0xbc9a3f3b	-0.018828979
63	0x3b749e33	0.003732574
64	0x3df35b3b	0.11882635
65	0xbb437759	-0.0029825775
66	0xbdbd87a5	-0.09254388
67	0x3deacd54	0.114649445
68	0xbcd4f1a8	-0.025994137
69	0x3db8e2b9	0.09027619
70	0xbd854913	-0.065080784
71	0xbcd5bebd	-0.026091928
72	0x3d50e97a	0.05100391
73	0x3d57d5d6	0.052694164
74	0x3c47e818	0.012201332
75	0x3b707942	0.003669337
76	0xbd5157a5	-0.051108975
77	0xbd4eb6eb	-0.050467413
78	0xbc955815	-0.018230477
79	0x3cc2a790	0.02376154
80	0x3d6b7c80	0.05749178
81	0x3ca6616f	0.020310132
82	0xbd8059ed	-0.06267152
83	0x3cdcc97b	0.026951542
84	0xbd9e1fd4	-0.077209145
85	0x3c4a6707	0.012353665
86	0xbc659b5c	-0.014014091
87	0xbd2b929a	-0.041887857
88	0xbb5bcaf5	-0.003353772
89	0x3d0b1cba	0.033962943
90	0xbcb9c21b	-0.022675565
91	0x3cfb7be8	0.030698732
92	0x3d778086	0.060425304
93	0x3d32b4ef	0.043629583
94	0x3ce78bfb	0.02826499
95	0xbd81fd64	-0.063471586
96	0xbd8991d0	-0.06717265
97	0xbcc890cf	-0.024483113
98	0xbbc4c0aa	-0.0060044127
99	0x3df01ecf	0.11724626
100	0x3ca343ce	0.019929793
101	0xbd14377c	-0.036185727
102	0x3ab6ebf9	0.0013955823
103	0x3c63ba37	0.013899378
104	0x3b4d269f	0.0031303538
105	0x3d0b8a86	0.034067653
106	0xbd59e484	-0.053196445
107	0x3d806c93	0.06270709
108	0xbd8e3b3c	-0.06944892
109	0xbcaeb807	-0.021327985
110	0x3cbca7f0	0.023029298
111	0xbcb00c21	-0.021490159
112	0x3d03381a	0.032035924
113	0x3b444c76	0.00299528
114	0xbdab7214	-0.08371368
115	0x3d323683	0.043509018
116	0x3c48c6ac	0.012254398
117	0xbda437ba	-0.080184415
118	0xbd405b5b	-0.046962123
119	0xbc806807	-0.015674604
120	0xbcb132e5	-0.021630714
121	0x3d358616	0.044317327
122	0xbc9c12aa	-0.019051868
123	0x3b77e78c	0.0037827222
124	0x3df43269	0.119236775
125	0xbb57bbc7	-0.003291832
126	0xbdbe6604	-0.09296802
127	0x3deabdb4	0.11461964
128	0xbcd4dae1	-0.025983276
129	0x3db91d42	0.090387836
130	0xbd858367	-0.06519204
131	0xbcd6adb4	-0.026205875
132	0x3d51640e	0.05112081
133	0x3d57a365	0.05264606
134	0x3c44fcfa	0.012023205
135	0x3b80abab	0.0039267144
136	0xbd51d9d9	-0.051233146
137	0xbd4ee416	-0.05051049
138	0xbc939c31	-0.018018814
139	0x3cc2252f	0.023699371
140	0x3d6bbd5c	0.057553634
141	0x3ca648fa	0.02029847
142	0xbd80ba21	-0.06285501
143	0x3cdb6e25	0.02678592
144	0xbd9e7335	-0.07736818
145	0x3c4da5bb	0.01255172
146	0xbc65af26	-0.014018809
147	0xbd2baadb	-0.041910987
148	0xbb580805	-0.0032963764
149	0x3d0aeb92	0.033916064
150	0xbcba1840	-0.022716641
151	0x3cfc3e69	0.030791478
152	0x3d770f04	0.060317054
153	0x3d32322e	0.043504886
154	0x3ce6dc55	0.028181234
155	0xbd82150a	-0.06351669
156	0xbd896cc5	-0.06710199
157	0xbcc6fba2	-0.02428991
158	0xbbc96ccf	-0.006147004
159	0x3df06412	0.11737837
160	0x3ca3c8d3	0.019993221
161	0xbd1625d2	-0.036657162
162	0x3aa9c667	0.0012952805
163	0x3c605978	0.013693206
164	0x3b444fdf	0.0029954833
165	0x3d0c7c9c	0.034298524
166	0xbd5ad1c2	-0.053422697
167	0x3d80fe15	0.06298462
168	0xbd8ecd1d	-0.06972716
169	0xbcae5906	-0.021282684
170	0x3cbe0228	0.023194388
171	0xbcb202c2	-0.02172983
172	0x3d02d479	0.03194091
173	0x3b4be937	0.0031114349
174	0xbdab9265	-0.08377532
175	0x3d31f58b	0.04344706
176	0x3c4b7a0a	0.012419233
177	0xbda34f81	-0.079741485
178	0xbd40c32f	-0.04706114
179	0xbc7a9912	-0.015295284
180	0xbcb27d86	-0.02178837
181	0x3d3490ae	0.04408329
182	0xbc99f65d	-0.018794233
183	0x3b76c657	0.003765484
184	0x3df38976	0.11891453
185	0xbb35a072	-0.002771404
186	0xbdbd8a57	-0.09254902
187	0x3deab1ae	0.11459671
188	0xbcd4d11b	-0.025978616
189	0x3db9321f	0.09042763
190	0xbd853967	-0.06505089
191	0xbcd42f88	-0.02590157
192	0x3d51f96a	0.05126325
193	0x3d58ba06	0.05291178
194	0x3c4864d9	0.012231075
195	0x3b71bb9c	0.0036885506
196	0xbd517e27	-0.0511457
197	0xbd4e3f3b	-0.05035327
198	0xbc952f43	-0.018211013
199	0x3cc37c0a	0.023862857
200	0x3d6b2152	0.057404824
201	0x3ca603dc	0.020265512
202	0xbd80380e	-0.062606916
203	0x3cdd5bd8	0.027021334
204	0xbd9de8de	-0.077104315
205	0x3c4988d1	0.012300686
206	0xbc67c04f	-0.014144971
207	0xbd2b78ab	-0.041863125
208	0xbb683c18	-0.003543621
209	0x3d0acf95	0.033889372
210	0xbcb9693f	-0.022633193
211	0x3cfb91ea	0.030709226
212	0x3d76e5ee	0.06027787
213	0x3d326200	0.04355049
214	0x3ce748e1	0.028232994
215	0xbd81f2eb	-0.06345161
216	0xbd89ea48	-0.06734139
217	0xbcc8fd5a	-0.02453487
218	0xbbc68c06	-0.0060591726
219	0x3df02a0f	0.11726772
220	0x3ca402a9	0.0200208
221	0xbd147637	-0.03624555
222	0x3ab35b0c	0.001368375
223	0x3c6229e7	0.013803936
224	0x3b49f9cb	0.0030819054
225	0x3d0b68d1	0.034035508
226	0xbd592a23	-0.0530187
227	0x3d80a448	0.06281334
228	0xbd8deb7b	-0.0692968
229	0xbcadf1d5	-0.021233479
230	0x3cbd8694	0.02313546
231	0xbcaf3959	-0.02138965
232	0x3d036ddd	0.032087196
233	0x3b4867aa	0.0030579367
234	0xbdab7ddd	-0.08373616
235	0x3d32e336	0.043673716
236	0x3c4870c9	0.012233921
237	0xbda3f8b8	-0.08006424
238	0xbd4071ee	-0.04698365
239	0xbc7dfca7	-0.015502132
240	0xbcb19cf2	-0.021681283
241	0x3d34e32d	0.044161964
242	0xbc9a42cb	-0.018830677
243	0x3b82ca9d	0.0039914385
244	0x3df3ba16	0.119007275
245	0xbb559ea1	-0.003259577
246	0xbdbe6b22	-0.09297778
247	0x3dea5dd9	0.11443681
248	0xbcd34ddf	-0.025793968
249	0x3db886db	0.09010097
250	0xbd84d5a6	-0.06486063
251	0xbcd24d81	-0.025671722
252	0x3d506055	0.05087312
253	0x3d59156a	0.052998938
254	0x3c4ac4bc	0.012376007
255	0x3b898ba8	0.0041975565

att_encoder.s_n f4 [1, 120, 60]
0	0xbd2d679e	-0.042335145
1	0x3db1075f	0.08643984
2	0xbd199c4d	-0.037502576
3	0x3c0ba3ba	0.008522922
4	0x3e6808e4	0.22659642
5	0xbbab6270	-0.0052302405
6	0xbe33ae34	-0.17546922
7	0x3e57a76b	0.21059959
8	0xbd43a71c	-0.04776679
9	0x3e417ef2	0.18896082
10	0xbe0c13e6	-0.13679466
11	0xbd66fd83	-0.05639411
12	0x3dcbb37a	0.09946342
13	0x3dc45730	0.09586942
14	0x3cd58f3e	0.02606928
15	0x3bf133e4	0.007360922
16	0xbdd01f65	-0.10162238
17	0xbdce9f2c	-0.100889534
18	0xbd13ce7c	-0.03608559
19	0x3d592fde	0.053024165
20	0x3de8ae68	0.1136139
21	0x3d1ffcbc	0.039059386
22	0xbdee3544	-0.11631253
23	0x3d61c15c	0.055116042
24	0xbe2303ea	-0.15919462
25	0x3cd020ba	0.02540623
26	0xbcdfd7b4	-0.027324535
27	0xbdc483e9	-0.09595472
28	0xbbe63494	-0.007025311
29	0x3d8cc58a	0.06873615
30	0xbd34c2aa	-0.04413096
31	0x3d7ae38f	0.061252173
32	0x3e041e2e	0.12902138
33	0x3da08b13	0.07839026
34	0x3d76ce4d	0.060255338
35	0xbdfeb618	-0.124370754
36	0xbdfa2be7	-0.12215405
37	0xbd4251ea	-0.0474414
38	0xbc450e23	-0.012027296
39	0x3e75f038	0.24017417
40	0x3d231c06	0.039821647
41	0xbd8fd26a	-0.07022555
42	0x3b4dbbe4	0.003139251
43	0x3ceaedc2	0.028677825
44	0x3bd0fbe8	0.006377686
45	0x3d872042	0.065979496
46	0xbdcbbbfc	-0.099479645
47	0x3e068720	0.13137484
48	0xbe123e94	-0.14281684
49	0xbd2cd8aa	-0.042198814
50	0x3d3edd31	0.046597663
51	0xbd2fc628	-0.042913586
52	0x3d8754fc	0.06608006
53	0x3bd3ce4c	0.0064638015
54	0xbe27f2a6	-0.16401157
55	0x3dad5ac3	0.08464577
56	0x3ccecf78	0.025245413
57	0xbe171539	-0.1475419
58	0xbdc948b0	-0.09828317
59	0xbceaa5a0	-0.02864343
60	0xbd2caa7c	-0.042154774
61	0x3db1d69e	0.08683513
62	0xbd196816	-0.03745278
63	0x3c07bd76	0.008284917
64	0x3e67c017	0.2263187
65	0xbbc1b4fe	-0.0059114685
66	0xbe33587f	-0.17514227
67	0x3e5773f4	0.21040326
68	0xbd42448e	-0.04742866
69	0x3e410f3c	0.18853468
70	0xbe0c7f58	-0.13720453
71	0xbd6bd38e	-0.0575748
72	0x3dcc26d4	0.099683434
73	0x3dc2f45c	0.09519264
74	0x3cd0cada	0.025487352
75	0x3bec74ea	0.0072160857
76	0xbdd00cab	-0.10158666
77	0xbdcf1e80	-0.10113239
78	0xbd12c31e	-0.03583061
79	0x3d54bdf2	0.05193896
80	0x3dea6a58	0.11446065
81	0x3d20606e	0.039154463
82	0xbdf02747	-0.117262416
83	0x3d5ff723	0.054679047
84	0xbe233915	-0.15939744
85	0x3ccfee60	0.02538222
86	0xbcdd6a6c	-0.027028285
87	0xbdc634f0	-0.09678066
88	0xbbdcf55a	-0.0067431154
89	0x3d8c6bf2	0.068565264
90	0xbd378462	-0.044803984
91	0x3d7b306a	0.061325468
92	0x3e046051	0.12927367
93	0x3da0740b	0.078346334
94	0x3d77818d	0.060426284
95	0xbdffcc6c	-0.12490162
96	0xbdfa05d2	-0.122081414
97	0xbd3f7866	-0.04674568
98	0xbc417bca	-0.011809299
99	0x3e7647f2	0.24050882
100	0x3d23129e	0.039812677
101	0xbd907120	-0.07052827
102	0x3b322b3a	0.002718641
103	0x3cec2fde	0.028831419
104	0x3bdcbfde	0.0067367395
105	0x3d86e55e	0.06586717
106	0xbdcc228d	-0.099675275
107	0x3e05e860	0.13076925
108	0xbe12cf8c	-0.14336985
109	0xbd2a9d2c	-0.041653797
110	0x3d3dff80	0.046386242
111	0xbd33c741	-0.043891195
112	0x3d887921	0.066637285
113	0x3bd33973	0.0064460575
114	0xbe277f86	-0.1635724
115	0x3dac863b	0.0842404
116	0x3cd08ce1	0.025457801
117	0xbe1691bc	-0.14704031
118	0xbdc8853e	-0.09791039
119	0xbceb48e0	-0.028721273
120	0xbd2ba99e	-0.041909806
121	0x3db201ce	0.086917505
122	0xbd1b1c18	-0.03786859
123	0x3c099ba0	0.00839892
124	0x3e687664	0.22701412
125	0xbbd5b703	-0.006522061
126	0xbe3434b6	-0.17598233
127	0x3e575d92	0.21031788
128	0xbd424de6	-0.04743757
129	0x3e41352d	0.18867941
130	0xbe0cc9b7	-0.13748823
131	0xbd6cf50e	-0.05785089
132	0x3dccb934	0.09996262
133	0x3dc2d54e	0.09513341
134	0x3ccdb5a8	0.025111035
135	0x3bfd3256	0.007726948
136	0xbdd08b29	-0.10182793
137	0xbdcf6540	-0.10126734
138	0xbd1102ad	-0.035402942
139	0x3d543e66	0.05181732
140	0x3dea8a31	0.11452139
141	0x3d203608	0.03911403
142	0xbdf0ad82	-0.11751844
143	0x3d5ecba9	0.054393444
144	0xbe238b7f	-0.15971182
145	0x3cd331dc	0.02578061
146	0xbcdd7634	-0.027033903
147	0xbdc66cd0	-0.09688723
148	0xbbd8fcc4	-0.006621929
149	0x3d8c5158	0.068514526
150	0xbd37d9ac	-0.044885322
151	0x3d7be298	0.061495394
152	0x3e043a3b	0.12912838
153	0x3da00514	0.078134686
154	0x3d76ad84	0.06022407
155	0xbe0000ce	-0.12500307
156	0xbdf9c639	-0.12196011
157	0xbd3df9d0	-0.046380818
158	0xbc46072a	-0.012086669
159	0x3e76be2f	0.24095987
160	0x3d239578	0.039937466
161	0xbd9254c4	-0.07145074
162	0x3b255f0a	0.002523365
163	0x3ce8b26e	0.028405394
164	0x3bd33358	0.0064453296
165	0x3d87d81a	0.06633015
166	0xbdcd0f85	-0.10012726
167	0x3e06801c	0.13134807
168	0xbe135f92	-0.14391926
169	0xbd2a439b	-0.04156838
170	0x3d3f4ed0	0.04670602
171	0xbd35d597	-0.04439315
172	0x3d880891	0.06642259
173	0x3bdb5b38	0.0066942237
174	0xbe279324	-0.16364723
175	0x3dac561d	0.08414862
176	0x3cd35f98	0.025802419
177	0xbe15c3eb	-0.14625518
178	0xbdc8dcbb	-0.09807726
179	0xbce5ad84	-0.02803684
180	0xbd2cf85e	-0.04222905
181	0x3db112c2	0.08646156
182	0xbd191c4b	-0.037380498
183	0x3c08f166	0.008358335
184	0x3e67eeb2	0.22649649
185	0xbbb3fdbe	-0.005492895
186	0xbe33594b	-0.17514531
187	0x3e575648	0.21029007
188	0xbd422924	-0.047402516
189	0x3e416363	0.1888557
190	0xbe0c6f62	-0.13714364
191	0xbd6a1abc	-0.057154402
192	0x3dcd30f9	0.100191064
193	0x3dc3c77d	0.09559534
194	0x3cd14fc9	0.02555074
195	0x3bedb698	0.007254433
196	0xbdd03322	-0.10166003
197	0xbdcea68d	-0.10090361
198	0xbd129bc4	-0.03579308
199	0x3d55a9dc	0.052163944
200	0x3dea0983	0.114275955
201	0x3d200717	0.03906926
202	0xbdefe1f4	-0.11713019
203	0x3d608c8e	0.054821543
204	0xbe22fe99	-0.15917434
205	0x3ccf04ea	0.025270898
206	0xbcdf7e2c	-0.027281843
207	0xbdc6155e	-0.09672044
208	0xbbe97635	-0.007124687
209	0x3d8c1fce	0.06842004
210	0xbd372b1b	-0.044718843
211	0x3d7b4bae	0.06135147
212	0x3e040d92	0.12895802
213	0x3da029a8	0.07820445
214	0x3d77354a	0.060353555
215	0xbdffb746	-0.124861285
216	0xbdfaa92c	-0.12239298
217	0xbd3fe4cf	-0.04684907
218	0xbc433d86	-0.011916524
219	0x3e765996	0.24057612
220	0x3d23d5f7	0.039998975
221	0xbd90ab91	-0.07063974
222	0x3b2eb07c	0.0026655486
223	0x3cea8dd0	0.028632075
224	0x3bd94d52	0.0066315318
225	0x3d86c300	0.06580162
226	0xbdcb7327	-0.09934073
227	0x3e062113	0.13098554
228	0xbe127a4c	-0.14304465
229	0xbd29da9a	-0.04146824
230	0x3d3eddba	0.046598174
231	0xbd32ebe4	-0.043681994
232	0x3d88b0a2	0.06674315
233	0x3bd7a218	0.0065806024
234	0xbe2791da	-0.16364232
235	0x3dad2d73	0.084559344
236	0x3cd03565	0.025416085
237	0xbe1659be	-0.14682671
238	0xbdc8a192	-0.09796442
239	0xbce8b809	-0.028408067
240	0xbd2c270c	-0.042029426
241	0x3db1562f	0.08659016
242	0xbd195b0e	-0.037440352
243	0x3c11196b	0.008856158
244	0x3e67fbea	0.22654691
245	0xbbd3d6d8	-0.0064648204
246	0xbe343248	-0.17597306
247	0x3e56f09b	0.20990221
248	0xbd40b678	-0.047049016
249	0x3e408ff0	0.18804908
250	0xbe0c0700	-0.13674545
251	0xbd67ff7c	-0.056640133
252	0x3dcbaa68	0.09944612
253	0x3dc421b6	0.09576742
254	0x3cd3eb6e	0.025869098
255	0x3c075506	0.008260017

att_encoder.encoder_lstm.weight_ih_l0 f4 [240, 25]
0	0x3d4a5e20	0.04940617
1	0x3dcda004	0.10040286
2	0xbdeeab10	-0.11653721
3	0x3d0725dc	0.03299509
4	0xbd475818	-0.048667997
5	0x3da027a6	0.07820062
6	0xbdd2442f	-0.10266911
7	0xbd399fdc	-0.04531847
8	0x3dd7e406	0.10541539
9	0x3d9b0c68	0.07570726
10	0x3df586b6	0.11988585
11	0x3dc64a04	0.09682086
12	0xbd3c5dca	-0.04598788
13	0x3c064140	0.008194268
14	0x3dd4bfc6	0.103881404
15	0xbdd31ea7	-0.10308581
16	0x3d9af31e	0.07565902
17	0xbdf8d6cc	-0.12150344
18	0xbe03513d	-0.12823959
19	0xbcfbf060	-0.030754268
20	0x3dd32e5c	0.10311577
21	0x39849200	0.0002528578
22	0x3db9b19e	0.09067081
23	0x3da216a4	0.079144746
24	0xbd608582	-0.054814823
25	0xbcd1ff34	-0.025634386
26	0xbd8727a9	-0.065993614
27	0xbdcd5fd6	-0.10028045
28	0xbdbcaf10	-0.09213078
29	0x3dd30ae4	0.103048116
30	0x3da9221c	0.08258459
31	0xbcc38960	-0.023869216
32	0x3c8f7900	0.017513752
33	0xbc0fb040	-0.008770049
34	0xbd16c830	-0.036812007
35	0xbd511954	-0.051049545
36	0xbe015fa8	-0.12634146
37	0xbc1268a8	-0.008936085
38	0x3d8fd7b8	0.07023567
39	0xbccbf7c8	-0.024898425
40	0xbdc8b30e	-0.09799777
41	0xbc3d1dc8	-0.011542745
42	0x3dd51bd0	0.104056954
43	0xbc2215d8	-0.009892903
44	0xbc499b40	-0.012305081
45	0x3c3e95d0	0.011632398
46	0x3df5e2a4	0.12006119
47	0xbdc1735e	-0.09445833
48	0xbd715c72	-0.058926053
49	0x3d808626	0.06275587
50	0x3d8060d6	0.0626847
51	0x3ca21cd0	0.01978913
52	0x3d8dc04c	0.06921443
53	0x3da50932	0.080583945
54	0xbe03f9b0	-0.12888217
55	0xbca582ec	-0.02020403
56	0xbdc74946	-0.09730773
57	0x37dc8000	2.6285648e-05
58	0xbd6600de	-0.05615317
59	0xbce5dca8	-0.028059319
60	0xbd04f9b4	-0.032464698
61	0x3d3a6bbc	0.0455129
62	0x3da519b6	0.080615446
63	0x3dff5172	0.12466706
64	0x3d8293f2	0.063758746
65	0xbd7d07b2	-0.061774917
66	0x3c469ca0	0.012122303
67	0xbcb54290	-0.022126466
68	0x3c13fa70	0.009031877
69	0x3dff8d3a	0.12478109
70	0xbd81c54a	-0.06336458
71	0x3d7bdccc	0.061489865
72	0x3df43884	0.11924842
73	0x3ddbf6f6	0.107404634
74	0xbdb5e582	-0.08881666
75	0x3dfce0f2	0.123475924
76	0x3c9af750	0.018916756
77	0xbdb565d6	-0.08857314
78	0xbd0a8b26	-0.03382411
79	0xbd106b18	-0.035258383
80	0xbdb4fca1	-0.08837248
81	0x3d809842	0.06279041
82	0xbd0c8c20	-0.03431332
83	0x3e00217f	0.12512778
84	0xbbb9c5f0	-0.005669348
85	0x3db0e134	0.08636704
86	0x3df70ee2	0.120633855
87	0xbd05e09c	-0.032684907
88	0xbccdba38	-0.02511321
89	0xbd05941e	-0.03261196
90	0xbd770d06	-0.060315154
91	0xbd8d58b2	-0.06901683
92	0x3ddf6c34	0.1090931
93	0x3d3912a0	0.045183778
94	0xbd03a5e4	-0.032140628
95	0x3d7c86b0	0.061651886
96	0x3d8eddb0	0.06975877
97	0xbcd6ee18	-0.026236579
98	0x3d8b1f8c	0.067931265
99	0x3c719e50	0.014747217
100	0x3c683a50	0.014174059
101	0x3dea8b96	0.11452405
102	0x3dc4c564	0.09607962
103	0x3e02c061	0.12768699
104	0x3d607e50	0.05480796
105	0x3c926258	0.01786916
106	0x3d7156ac	0.058920547
107	0x3d87edea	0.066371754
108	0xbdb5c9d3	-0.088763855
109	0xbd728f7a	-0.05921886
110	0x3ccadf38	0.024764642
111	0xbd9be136	-0.07611315
112	0xbdd09e58	-0.10186452
113	0x3de85a1e	0.113453135
114	0x3dd0741c	0.10178396
115	0x3d42c26c	0.047548696
116	0xbd6f34ce	-0.058399968
117	0x3d6df474	0.058094457
118	0xbdd4f046	-0.10397391
119	0xbda94c3a	-0.08266492
120	0xbd824640	-0.063610554
121	0x3e009e75	0.12560447
122	0xbdd85f30	-0.105650306
123	0x3d0751a0	0.033036828
124	0x3da8a942	0.08235408
125	0x3ad89380	0.0016523451
126	0x3b1a1a80	0.002351433
127	0xbd9243f6	-0.07141869
128	0x3d1a66cc	0.03769569
129	0x3dd8180a	0.1055146
130	0x3d3dea68	0.046366125
131	0xbdc00395	-0.09375683
132	0xbd59caec	-0.053172037
133	0x3d96000c	0.07324228
134	0x3db2ee06	0.087368056
135	0xbdabb007	-0.08383184
136	0x3da2ab6a	0.07942851
137	0xbcb44250	-0.022004277
138	0x3b5e8d40	0.0033958703
139	0xbca2fcf8	-0.019896016
140	0xbe01e834	-0.12686235
141	0x3cd593a0	0.02607137
142	0xbd8781e4	-0.066165715
143	0x3def96e0	0.11698699
144	0x3c97eb88	0.018544927
145	0x3d085d48	0.033292085
146	0xbda9b656	-0.08286731
147	0xbcfe3cbc	-0.03103482
148	0x3dc3c912	0.095598355
149	0xbc87dc44	-0.016584523
150	0x3d9d2aa0	0.07674146
151	0xbcf399b0	-0.02973637
152	0x3dcf0648	0.1010862
153	0xbdf92b78	-0.12166494
154	0x3dee7356	0.11643092
155	0x3cb92848	0.022602215
156	0xbdade020	-0.08490014
157	0xbdf5c23e	-0.119999394
158	0x3d832b3a	0.06404729
159	0xbd1ea316	-0.03872975
160	0x3cf64100	0.030060291
161	0xbd8b0e0f	-0.06789791
162	0x3db5c8be	0.08876179
163	0x3a214700	0.00061522424
164	0x3caf1120	0.02137047
165	0xbe02c812	-0.12771633
166	0xbd6db6ee	-0.058035783
167	0xbd306968	-0.043069273
168	0x3d0ce3dc	0.03439699
169	0xbd841684	-0.06449607
170	0xbc80b224	-0.015709944
171	0xbcfe3ef8	-0.031035885
172	0xbdc63d9f	-0.09679722
173	0xbdb5426c	-0.088505596
174	0xbd4caa02	-0.04996682
175	0x3d83c27e	0.06433581
176	0x3dca2fc0	0.09872389
177	0xbdd23132	-0.102632895
178	0x3c977048	0.018486157
179	0xbd954152	-0.072878495
180	0x3df1ace0	0.118005514
181	0x3bf8ae20	0.0075891167
182	0x3d2bf504	0.041981712
183	0x3d600548	0.054692537
184	0x3dd9cf6e	0.10635267
185	0xbde03727	-0.109480195
186	0x3d5c6088	0.053802997
187	0x3c216110	0.009849802
188	0xbd3c54c8	-0.04597929
189	0x3dfdc656	0.12391345
190	0x3d61e514	0.055150107
191	0x3cf84950	0.030308396
192	0x3d4054f0	0.046956003
193	0xbd3ceebc	-0.046126112
194	0xbcd36130	-0.025803179
195	0x3da887dc	0.08229038
196	0xbca248d0	-0.01981011
197	0x3af8d300	0.0018983781
198	0x3dcd11ec	0.10013184
199	0xbcfcd8d8	-0.030865118
200	0xbcf3be14	-0.029753722
201	0xbdab381a	-0.0836031
202	0xbd4d28a8	-0.0500876
203	0xbc743e28	-0.014907397
204	0xbcdae0e8	-0.026718572
205	0xbc815664	-0.015788265
206	0xbdbe85aa	-0.09302838
207	0x3d9c6db6	0.07638113
208	0x3d804e98	0.062649906
209	0x3da2cdcc	0.07949409
210	0x3b3e2600	0.002901435
211	0xbacd3a00	-0.0015657544
212	0xbb8fc7d0	-0.004387833
213	0xbd504260	-0.05084455
214	0xbd9dd53f	-0.07706689
215	0xbd5f3096	-0.054489695
216	0xbd064fc0	-0.0327909
217	0xbde59c7c	-0.11211488
218	0x3d8d8082	0.069092765
219	0xb95c3800	-0.00021001697
220	0x3d6c5170	0.057694852
221	0xbdad827f	-0.08472156
222	0x3dfdbb76	0.12389271
223	0xbdaca32a	-0.084295586
224	0x3dd0a7c8	0.10188252
225	0xbd7ca65a	-0.061682083
226	0x3df43538	0.11924213
227	0xbdea8812	-0.114517346
228	0xbd93ae48	-0.07210976
229	0xbd23b726	-0.039969586
230	0x3d9b94c8	0.07596737
231	0x3d987d46	0.07445769
232	0xbc42ca48	-0.011889048
233	0xbdf10dfc	-0.117702454
234	0xbde063fe	-0.10956572
235	0x3df7e8c2	0.12104942
236	0xbd4b819c	-0.049684152
237	0xbde6dade	-0.11272214
238	0x3dff63d6	0.12470214
239	0xbd77f6be	-0.060538046
240	0x3d3c3c30	0.045955837
241	0xbda20720	-0.07911515
242	0x3c740e30	0.014895961
243	0xbd42cfe0	-0.047561526
244	0xbcf37648	-0.029719487
245	0x3de89c02	0.11357881
246	0x3d11d634	0.03560467
247	0x3be11e60	0.006870076
248	0x3d018004	0.031616226
249	0x3d885290	0.066563725
250	0xbdd4936f	-0.10379683
251	0xbdeccf65	-0.11562995
252	0x3c982b58	0.018575355
253	0xbd3270a8	-0.04356447
254	0xbdb0278a	-0.086012915
255	0xbdbac587	-0.091197066

att_encoder.encoder_lstm.weight_hh_l0 f4 [240, 60]
0	0x3d5d7d1c	0.05407439
1	0x3d466028	0.048431545
2	0xba5b1e00	-0.00083586574
3	0xbdd383bc	-0.10327861
4	0x3dedfbc2	0.116202846
5	0x3d50b174	0.050950482
6	0xbd44de92	-0.048063822
7	0xbc159b28	-0.00913123
8	0xbd9c0806	-0.07618718
9	0xbd6c6920	-0.057717443
10	0x3c6d3310	0.014477506
11	0x3dc8e7ae	0.098098144
12	0xbd47f3a8	-0.048816353
13	0x3d9bc222	0.07605387
14	0x3de2f570	0.1108197
15	0xbda03b54	-0.07823816
16	0x3d81e368	0.063422024
17	0xbc850470	-0.016237468
18	0xbdbe5a5a	-0.09294577
19	0xbc2438c8	-0.010023303
20	0x3d8144f4	0.0631198
21	0xbcda3c1c	-0.02663999
22	0xbddc3073	-0.107514285
23	0x3ddbc036	0.10730021
24	0x3cc6a968	0.024250701
25	0x3d54f834	0.051994517
26	0x3dd20f40	0.10256815
27	0xbde2ead4	-0.11079946
28	0x3cc263b8	0.02372919
29	0xbda1867c	-0.07886979
30	0xbd86303e	-0.0655217
31	0x3d22f5dc	0.03978525
32	0x3df812aa	0.12112935
33	0xbbf3ae60	-0.0074365586
34	0x3dbf4b22	0.09340502
35	0x3dbd515e	0.09244035
36	0xbe030f40	-0.12798786
37	0x3c339f70	0.010963306
38	0x3dc0fde8	0.09423429
39	0x3cc9ba00	0.024624825
40	0x3e031903	0.1280251
41	0xbd83f35d	-0.06442902
42	0xbd2e1a74	-0.042505696
43	0x3d3648a0	0.044502854
44	0x3d6e4764	0.058173552
45	0x3da78024	0.08178738
46	0x3dc491d0	0.09598124
47	0xbd1cc746	-0.03827598
48	0x3ddf248e	0.10895644
49	0x3dce129c	0.10062143
50	0xbd5925b0	-0.053014457
51	0x3da55064	0.08071974
52	0xbda4fce4	-0.080560476
53	0x3dab179c	0.083541125
54	0x3ce6ba18	0.028164908
55	0xbdc7edd0	-0.09762156
56	0xbd59ab68	-0.05314198
57	0x3dffb3ce	0.12485467
58	0x3e03099b	0.12796633
59	0x3dfbf86a	0.123032406
60	0xbcc8dba0	-0.024518788
61	0xbd939fed	-0.07208238
62	0x3dca9e9a	0.09893532
63	0x3ba7be20	0.0051191
64	0xbd9ae719	-0.0756361
65	0x3d8cd49e	0.06876491
66	0xbd8fb033	-0.07016029
67	0x3b810be0	0.003938183
68	0xbd0269f0	-0.03183931
69	0x3de8d358	0.113684356
70	0x3d6eafbc	0.058273062
71	0xbdc5822d	-0.0964397
72	0xbc7bef70	-0.015376911
73	0xbd6fea38	-0.058572978
74	0x3dddd842	0.108322635
75	0x3dca3384	0.09873107
76	0x3dbdab24	0.09261158
77	0xbd73a9e2	-0.059488185
78	0xbdd505be	-0.10401486
79	0xbd9cd37a	-0.076575235
80	0x3c9fb150	0.019493729
81	0x3d47eb30	0.048808277
82	0xbc6d1638	-0.014470629
83	0x3dccd788	0.10002047
84	0x3df7d3d2	0.121009484
85	0xbd71916c	-0.058976576
86	0xbd963bfe	-0.07335661
87	0x3dc8e11a	0.0980856
88	0x3dd19b9e	0.1023476
89	0xbd955b68	-0.07292825
90	0xbdccb91d	-0.09996245
91	0xbd3ff738	-0.046866626
92	0xbd6c2cce	-0.057659917
93	0x3da17ce0	0.07885146
94	0xbd2aaa52	-0.041666336
95	0xbd742456	-0.059604965
96	0x39266400	0.00015868247
97	0xbdcd5586	-0.10026078
98	0x3d8454f2	0.064615145
99	0x3defecec	0.11715111
100	0xbdb8018c	-0.0898467
101	0x3debd9ba	0.115161374
102	0x3d7b3fb0	0.061340034
103	0xbdafb70a	-0.08579834
104	0x3d65cfd4	0.056106403
105	0x3dee46d0	0.116346
106	0xbc2e4a10	-0.010637775
107	0x3d2da464	0.042393103
108	0xbdae1eca	-0.08501966
109	0x3ca28958	0.019840881
110	0x3de9ddf2	0.11419286
111	0x3dfdebda	0.12398501
112	0xbd087020	-0.033310056
113	0xbd9ccf58	-0.07656735
114	0x3d808424	0.06275204
115	0x3d56f580	0.05248022
116	0xbcd1f62c	-0.02563008
117	0x3e02f7d5	0.12789853
118	0x3c72f500	0.01482892
119	0xbd82ca56	-0.06386249
120	0xbdefedc3	-0.11715271
121	0x3d08b6d4	0.033377483
122	0x3dbd2356	0.092352554
123	0xbd2b562a	-0.04183022
124	0xbd54bf32	-0.05194015
125	0x3c973948	0.018459931
126	0x3d4d50ac	0.050125763
127	0xbdbe961c	-0.09305975
128	0x3d941a28	0.072315514
129	0x3cfc37a8	0.030788258
130	0x3ad2eb00	0.0016091764
131	0xbd440596	-0.04785689
132	0x3c506850	0.012720183
133	0xbdd1bf7e	-0.10241602
134	0x3d5b5588	0.053548366
135	0xbd5249da	-0.05133996
136	0xbdd706d3	-0.104993485
137	0xbd251f94	-0.04031332
138	0x3dd60394	0.10449901
139	0xbc8aba38	-0.0169345
140	0xbcf4e1ec	-0.029892884
141	0x3d6977a0	0.05699885
142	0x3d45a9b0	0.04825753
143	0xbb85cf00	-0.004083514
144	0x3d92543c	0.07144973
145	0xbd957f62	-0.07299687
146	0xbdb8686c	-0.09004292
147	0xbdb26697	-0.08710974
148	0x3dc76a58	0.0973708
149	0xbda50134	-0.0805687
150	0xbc9f6f98	-0.019462392
151	0x3c6a8960	0.014314979
152	0xbdde1523	-0.10843875
153	0xbcf33358	-0.029687569
154	0x3de3f776	0.11131184
155	0xbda4dd1a	-0.08049984
156	0xbde72fc2	-0.11288406
157	0xbce58ae0	-0.028020322
158	0x3de92c62	0.113854185
159	0xbc54eea0	-0.012996346
160	0xbd1472d4	-0.03624232
161	0x3d3a81b8	0.045533866
162	0x3cbca800	0.023029327
163	0xbbab5af0	-0.0052293465
164	0xbcea3d44	-0.028593667
165	0x3d676d18	0.056500524
166	0xbdaf3a67	-0.08556061
167	0xbc3c9f50	-0.011512592
168	0xbd226748	-0.039649278
169	0xbde2d1f6	-0.11075203
170	0xbda4c748	-0.080458224
171	0xbd8605c8	-0.065440714
172	0xbde2c890	-0.110734105
173	0x3d556b04	0.05210401
174	0xbcd9c780	-0.026584387
175	0x3df56762	0.11982609
176	0x3d93fe28	0.07226211
177	0xbda4f74b	-0.0805498
178	0x3e001603	0.12508397
179	0x3cfd7c00	0.030942917
180	0xbd35580c	-0.04427342
181	0x3d98811a	0.07446499
182	0x3db3620c	0.08758935
183	0x3d86ae0a	0.06576164
184	0xbda97560	-0.08274341
185	0xbca84240	-0.020539403
186	0xbd65dec6	-0.056120656
187	0x3db9a6ec	0.09065041
188	0x3df8f3ca	0.12155874
189	0x3dfd667e	0.123730645
190	0xbddc0c80	-0.10744572
191	0x3da93f56	0.082640335
192	0x3de4baea	0.111684635
193	0x3dae5aa2	0.085133806
194	0x3d93ca4c	0.072163194
195	0x3d69c41c	0.05707179
196	0x3d4031b4	0.0469224
197	0x3d8a5bfa	0.067558244
198	0xbde5c28c	-0.112187475
199	0x3d475760	0.04866731
200	0xbcdab744	-0.026698716
201	0xbc5d8ae0	-0.01352188
202	0x3de99bde	0.114066824
203	0x3df4b74c	0.119490236
204	0xbd114556	-0.035466515
205	0x3d7ffd70	0.062497556
206	0xbdfebf43	-0.12438824
207	0xbddc2a8b	-0.10750302
208	0xbdf70fb7	-0.12063544
209	0x3d5b6ec0	0.053572416
210	0x3dfe6bc6	0.124229
211	0x3d89f4ca	0.06736143
212	0x3dd4155e	0.10355638
213	0x3c3b5000	0.011432648
214	0x3dd90ac0	0.105977535
215	0x3bc50400	0.0060124397
216	0x3ddd742c	0.10813174
217	0x3dcda300	0.100408554
218	0xbdddf1c3	-0.10837128
219	0xbdf4f6d8	-0.11961144
220	0xbd233d68	-0.039853483
221	0x3db1e590	0.08686364
222	0x3d8cd300	0.068761826
223	0x3dc4c1f6	0.096073076
224	0x3df13a0c	0.1177865
225	0xbaf2cf80	-0.0018524975
226	0x3cf0a428	0.02937515
227	0x3e042fe9	0.12908901
228	0xbd3a79f4	-0.04552646
229	0xbdbc63f8	-0.09198755
230	0xbd6ab452	-0.057300873
231	0x3c776fd0	0.015102342
232	0xbbc25f50	-0.0059317723
233	0xbdc52f54	-0.09628168
234	0xbdef1ee2	-0.11675812
235	0xbdd1c53b	-0.10242697
236	0x3d959a24	0.073047906
237	0x3d6412ac	0.05568187
238	0x3d4b0148	0.04956177
239	0x3ad83800	0.0016496181
240	0xbdf2be9d	-0.11852763
241	0xbc08d270	-0.008350953
242	0x3d8fb45e	0.07016824
243	0x3c9f73b8	0.019464359
244	0xbc69aa08	-0.01426173
245	0x3dc7d5f8	0.09757608
246	0xbd6a3ca4	-0.057186738
247	0x3de205f8	0.11036295
248	0x3d8eb642	0.06968357
249	0xbcdd64d0	-0.02702561
250	0x3dfb2f1e	0.12264846
251	0x3d80e2cc	0.06293258
252	0xbd24ef8e	-0.04026752
253	0x3be304c0	0.0069280565
254	0x3e02e955	0.12784322
255	0x3d3b51fc	0.045732483

att_encoder.encoder_lstm.bias_ih_l0 f4 [240]
0	0xbd8d9a38	-0.069141805
1	0xbcf61098	-0.03003721
2	0x3cae05f8	0.02124308
3	0x3d2bbec0	0.04192996
4	0x3d93b258	0.07211751
5	0x3de7bc30	0.11315191
6	0xbd16237c	-0.036654934
7	0x3d8968fa	0.06709476
8	0x3d81d2e0	0.06339049
9	0xbde3d846	-0.11125235
10	0xbd70c446	-0.05878093
11	0x3e01abaf	0.12663148
12	0x3dfed556	0.12443034
13	0xbdde57aa	-0.10856564
14	0xbde6be04	-0.11266711
15	0x3d2166a0	0.03940451
16	0xbdcf7bd0	-0.10131037
17	0xbdfccc09	-0.12343604
18	0x3c2d59e0	0.01058051
19	0x3da4d096	0.08047597
20	0x3dc79052	0.09744324
21	0xbe03a53c	-0.12856
22	0x3daa3de4	0.08312586
23	0x3c264610	0.01014854
24	0xbda3dcd4	-0.08001104
25	0x3d419c08	0.047267944
26	0x3d9353da	0.07193728
27	0xbd0496c6	-0.03237035
28	0x3d03c244	0.032167688
29	0x3d0ef89c	0.03490506
30	0x3d510464	0.051029578
31	0xbc8a0bb0	-0.016851276
32	0x3c7f46c0	0.015580833
33	0xbdd3f185	-0.103488006
34	0xbdb65b79	-0.08904166
35	0xbd2a141c	-0.041523084
36	0xbdd7ad5d	-0.10531113
37	0xbc52fd68	-0.0128778
38	0xbd843a32	-0.064564124
39	0x3d87b596	0.06626432
40	0x3b4df300	0.0031425357
41	0x3caa1460	0.020761669
42	0xbdda1b06	-0.106496856
43	0xbc385b68	-0.011252262
44	0x3b037d80	0.0020063818
45	0x3df59a0e	0.11992274
46	0x3dc977ca	0.09837301
47	0x3e004951	0.12527968
48	0xbdbc7c0c	-0.092033476
49	0xbcac00c0	-0.020996451
50	0xbdcc1dc4	-0.09966615
51	0x3d171550	0.03688556
52	0xbd07240e	-0.03299337
53	0xbddd71a2	-0.10812689
54	0xbdb426dd	-0.08796475
55	0x3dfeed76	0.12447636
56	0x3d96a23a	0.07355161
57	0x3cf283a8	0.029603794
58	0x3d75d750	0.06001979
59	0xbd0b78f4	-0.034050897
60	0xbd39cb02	-0.04535962
61	0x3dbd280a	0.092361525
62	0x3cef4958	0.029209778
63	0x3c641420	0.013920814
64	0x3d8faa98	0.0701496
65	0x3d9dbd44	0.07702115
66	0x3d998a56	0.074970886
67	0xbd98b143	-0.07455685
68	0x3dd09c46	0.10186057
69	0x3ddb0744	0.10694745
70	0x3b757100	0.0037451386
71	0xbca08608	-0.019595161
72	0x3ceb2508	0.028704181
73	0xbd50006c	-0.050781652
74	0xbdcc8756	-0.09986751
75	0xbd147ec0	-0.03625369
76	0x3d53d35c	0.05171524
77	0xbdcc4213	-0.0997354
78	0xbd64020e	-0.055666022
79	0xbd592b24	-0.053019658
80	0x3b48b380	0.0030624568
81	0xbcef5ee4	-0.029220052
82	0x3daa05d0	0.0830189
83	0xbdceaee0	-0.100919485
84	0x3d0fd2d4	0.03511317
85	0xbd787d7e	-0.060666554
86	0xbd7abed4	-0.061217144
87	0x3dcb7358	0.099341094
88	0x3de2ecfe	0.11080359
89	0x3e03549b	0.12825243
90	0x3dbda1aa	0.092593506
91	0x3d73b890	0.059502184
92	0x3de0c2c0	0.109746456
93	0xbdceade0	-0.10091758
94	0x3d89b296	0.06723516
95	0x3d55426c	0.052065298
96	0x3bd496c0	0.0064876974
97	0x3d34efac	0.04417388
98	0x3db340c2	0.08752586
99	0x3dd6ad52	0.10482277
100	0x3dec28a0	0.11531186
101	0x3e030fc7	0.12798987
102	0xbc68adc8	-0.014201589
103	0x3d02b18c	0.031907603
104	0xbdf0c46c	-0.117562145
105	0x3b8d1c80	0.004306376
106	0x3ca85018	0.020546004
107	0xbcfe6060	-0.031051815
108	0x3dee119a	0.11624451
109	0xbd0bbf1a	-0.034117796
110	0xbe00c863	-0.12576441
111	0x3dfae62e	0.122509345
112	0x3b9453c0	0.0045265853
113	0x3d7fd904	0.06246282
114	0x3d071638	0.032980174
115	0x3dbe5478	0.09293455
116	0x3b6cce40	0.0036133677
117	0xbce43434	-0.027856924
118	0xbe02aee8	-0.12762034
119	0xbd94c718	-0.072645366
120	0xbdf2da5d	-0.11858056
121	0x3db0215c	0.08600113
122	0xbdda69e0	-0.10664725
123	0xbca6fa80	-0.02038312
124	0x3d95604c	0.07293758
125	0x3dbca200	0.092105865
126	0xbd97dc02	-0.0741501
127	0x3d0e28e0	0.03470695
128	0x3da19504	0.078897506
129	0x3e02044b	0.1269695
130	0xbd9697bc	-0.0735316
131	0xbdefec66	-0.11715011
132	0xbc93d180	-0.018044233
133	0x3d1afe10	0.03783995
134	0x3b267040	0.0025396496
135	0x3c8656e0	0.016398847
136	0x3bae01e0	0.005310282
137	0xbd736a52	-0.059427567
138	0x3da4a124	0.08038548
139	0x3c15e930	0.0091498345
140	0x3d36891c	0.04456435
141	0xbd5e7612	-0.05431182
142	0xbdbe6785	-0.092970885
143	0xbc380688	-0.011232026
144	0xbdb4d136	-0.08828966
145	0xbde14b94	-0.110007435
146	0x3de22030	0.110412955
147	0xbdc9408a	-0.09826763
148	0xbc89d22c	-0.01682385
149	0x3dcd378c	0.1002036
150	0xbe00284a	-0.12515369
151	0xbd8cdfe2	-0.0687864
152	0x3d753320	0.05986321
153	0x3c72ffe0	0.014831513
154	0x3ddc80c8	0.107667506
155	0xbb93cf10	-0.0045107678
156	0xbd183014	-0.037155226
157	0xbdb3d404	-0.08780673
158	0x3d9531b2	0.07284869
159	0x3c5940d0	0.013260081
160	0x3dfe84b6	0.12427656
161	0xbd2797dc	-0.04091631
162	0x385f7000	5.327165e-05
163	0xbceaf870	-0.028682917
164	0x3d02341c	0.031787977
165	0x3ce42350	0.02784887
166	0x3d68af04	0.056807533
167	0x3db345c4	0.08753541
168	0xbcdcd000	-0.02695465
169	0x3d5dc550	0.05414325
170	0xbd2710c6	-0.04078748
171	0xbd2978ce	-0.041374974
172	0x3dbe1ad6	0.09282462
173	0xbb417a00	-0.002952218
174	0xbe02f455	-0.12788518
175	0x3de7ea16	0.11323945
176	0x3d7e36e8	0.06206408
177	0xbd866495	-0.06562153
178	0xbd235844	-0.0398791
179	0x3d51e640	0.051244974
180	0x3cd898b0	0.026439995
181	0xbd506c24	-0.05088438
182	0xbd1a9f7c	-0.037749752
183	0xbdaec841	-0.08534289
184	0x3dda2734	0.10652009
185	0x3dd9e82e	0.10639988
186	0x3d835a78	0.0641374
187	0x3df2485e	0.11830209
188	0x3d724988	0.059152156
189	0x3d7c34c0	0.061573744
190	0xbca21064	-0.019783206
191	0xbd7f77a2	-0.06236995
192	0xbdb47e50	-0.08813155
193	0x3df495a2	0.11942603
194	0xbd9685a4	-0.07349709
195	0x3df03f62	0.11730839
196	0x3dfbb1ca	0.1228977
197	0xbde7c99f	-0.11317753
198	0xbd9ac957	-0.07557934
199	0xbde0f5fa	-0.10984416
200	0xbdd65dd6	-0.104671165
201	0x3cb40b58	0.021978065
202	0x3db0a3ae	0.086249694
203	0x3ddb3952	0.10704292
204	0x3c296ed0	0.010341361
205	0xbc9cb4a8	-0.019129112
206	0x3d605cbc	0.05477594
207	0xbdf59542	-0.11991359
208	0xbaf8f680	-0.0018994361
209	0x3d95627a	0.072941735
210	0x3dafc252	0.085819855
211	0x3da309a0	0.0796082
212	0xbde1b401	-0.11020661
213	0x3dccddfc	0.10003278
214	0xbd177de0	-0.036985278
215	0x3d85a2e6	0.06525211
216	0x3e00f09b	0.12591784
217	0x3d86f214	0.065891415
218	0x3dedcd54	0.11611429
219	0xbde76b78	-0.11299795
220	0xbd0a21be	-0.033723585
221	0x3d978fa0	0.07400441
222	0x3d9009c6	0.07033114
223	0xbd87d21a	-0.066318706
224	0xbcfbc728	-0.030734614
225	0xbd59ae22	-0.05314458
226	0x3d7d9c90	0.061916888
227	0xbca9f274	-0.020745493
228	0x3da872a2	0.082249895
229	0xbdaaf718	-0.08347911
230	0x3ca12e00	0.019675255
231	0x3dd8619c	0.105654925
232	0xbdddb398	-0.108252704
233	0xbd817527	-0.06321173
234	0x3a0a7d00	0.00052829087
235	0x3c46d990	0.012136832
236	0xbcb8b76c	-0.0225484
237	0x3d131af4	0.035914376
238	0x3ceb2ac0	0.028706908
239	0x3dc18636	0.09449427

att_encoder.encoder_lstm.bias_hh_l0 f4 [240]
0	0xbdefef9e	-0.11715625
1	0xbd98db9e	-0.07463764
2	0xbd9cf813	-0.07664504
3	0x3df16d16	0.117883846
4	0x3d94810e	0.07251178
5	0x3d901d22	0.07036807
6	0x3de5fb5c	0.112295836
7	0x3d38a11c	0.04507552
8	0x3c492b70	0.012278423
9	0x3dbe4694	0.092908055
10	0xbdfd690d	-0.123735525
11	0x3d1e9c84	0.038723484
12	0xbdaa2068	-0.08306962
13	0xbdf798c5	-0.12089685
14	0x3d73321c	0.05937396
15	0x3dfff596	0.12498014
16	0xbd8dbd05	-0.06920818
17	0xbd8f0620	-0.0698359
18	0xbd126876	-0.035744153
19	0x3dc8b654	0.09800401
20	0xbdef2362	-0.116766706
21	0x3de2233e	0.11041878
22	0xbdb946dc	-0.090467185
23	0xbd8c7a1a	-0.068592265
24	0xbd1a08c0	-0.037606
25	0xbdf4078f	-0.11915504
26	0x3d72da24	0.059290066
27	0xbd4c7372	-0.049914785
28	0x3d771dc4	0.06033112
29	0xbd5ed1b0	-0.054399192
30	0x3ba572e0	0.0050490946
31	0xbd8c5520	-0.06852174
32	0xbd03f2be	-0.03221392
33	0x3ce87358	0.028375313
34	0x3db547e4	0.08851603
35	0x3daf4f7c	0.08560082
36	0xbcadbc88	-0.021208063
37	0x3d0c4038	0.03424093
38	0x3cfa0f30	0.03052482
39	0x3df53364	0.119726926
40	0xbe0088b1	-0.12552144
41	0x3dc8c3ba	0.09802957
42	0xbdc684b2	-0.09693278
43	0x3d7bf1a8	0.06150976
44	0x3d0dce00	0.034620285
45	0xbd06a736	-0.03287431
46	0x3dae095c	0.08497879
47	0x3ced45c0	0.028963923
48	0x3d89afce	0.06722985
49	0xbd3b742e	-0.045765094
50	0xbcc9d0e4	-0.02463574
51	0x3de9dd22	0.11419131
52	0xbd7f897a	-0.062386967
53	0xbc5c3908	-0.013441332
54	0x3cd5c528	0.026094988
55	0xbdf02178	-0.11725134
56	0xbdbb0ee2	-0.09133698
57	0x3d1634f4	0.036671594
58	0x3d5a4210	0.05328566
59	0x3d769a40	0.060205698
60	0xbdd6df12	-0.10491766
61	0x3d938c04	0.0720444
62	0xbe02e9fd	-0.12784572
63	0xbd4cbb2e	-0.049983196
64	0x3dd72b36	0.10506289
65	0x3da639ae	0.0811647
66	0x3df595f8	0.11991495
67	0xbdf8422c	-0.12121996
68	0xbdfe5377	-0.124182634
69	0xbddc3b97	-0.10753553
70	0x3de15fa4	0.1100457
71	0xbdee4d6f	-0.11635863
72	0x3cf640d8	0.030060217
73	0xbd834d76	-0.06411259
74	0x3dd5a11c	0.1043112
75	0x3c297fc0	0.010345399
76	0xbd9256ce	-0.07145463
77	0x3da1faba	0.079091504
78	0xbd74c55a	-0.05975852
79	0x3cc065a8	0.023485973
80	0xbdde0c89	-0.10842235
81	0x3d9ff096	0.0780956
82	0xbda0cc52	-0.07851471
83	0xbd6a32ac	-0.05717723
84	0x3cea3b28	0.028592661
85	0x3dd72ffc	0.10507199
86	0xbddb3f86	-0.107054755
87	0xbdafab64	-0.08577612
88	0x3d84b046	0.06478934
89	0xbd888d02	-0.0666752
90	0xbd4d19f0	-0.050073564
91	0xbd60fc3c	-0.05492805
92	0x3d73a610	0.05948454
93	0x3d6ce324	0.057833806
94	0xbdb70487	-0.089364104
95	0x3dab788a	0.083726004
96	0xbd429064	-0.047500983
97	0xbd84fbdf	-0.06493353
98	0x3d97d9e0	0.07414603
99	0xbdabfda4	-0.083979875
100	0x3decafb6	0.11556952
101	0x3d7a1e98	0.061064333
102	0x3dfca566	0.12336235
103	0xbdde905e	-0.108673796
104	0x3dc5be4a	0.096554354
105	0xbdeb7d20	-0.11498475
106	0xbdf2a1be	-0.11847256
107	0x3d5bef70	0.053695142
108	0x3dc489e6	0.095966145
109	0x3cfee268	0.031113818
110	0x3dea6b82	0.11446287
111	0x3b6e7780	0.0036387146
112	0x3beffa20	0.0073235184
113	0xbd922566	-0.071360394
114	0x3d400238	0.046877116
115	0xbdaafa12	-0.083484784
116	0xbde5ded6	-0.11224143
117	0x3dd6b530	0.104837775
118	0xbd74b75c	-0.059745178
119	0xbd03f53e	-0.032216303
120	0x3ddb1a74	0.10698405
121	0xbbbfc4c0	-0.005852312
122	0x3dc3912c	0.09549174
123	0x3d177e78	0.036985844
124	0x3d98e54e	0.074656114
125	0xbd89478c	-0.067030996
126	0xbd931b51	-0.071829446
127	0x3df312f6	0.11868851
128	0xbdc0d3ea	-0.094154194
129	0x3dab7d3e	0.083734974
130	0xbd995640	-0.07487154
131	0x3dd3be68	0.103390515
132	0x3e011ca1	0.12608577
133	0x3d7cc0f0	0.061707437
134	0x3d83d26a	0.06436618
135	0xbc4c9658	-0.012487017
136	0xbd9075f4	-0.07053748
137	0xbd2f5786	-0.04280808
138	0xbdd7c842	-0.10536243
139	0x3d6ef4a8	0.05833879
140	0x3d3c3448	0.045948297
141	0x3d731f34	0.05935593
142	0x3c716060	0.01473245
143	0x3d86b754	0.06577936
144	0xbdb8a451	-0.09015716
145	0x3dffaf56	0.124846146
146	0xbdd8ada0	-0.10579991
147	0x3da848e4	0.08217028
148	0xbcff4eb0	-0.03116545
149	0xbbb422d0	-0.005497314
150	0x3ccc2528	0.024920061
151	0x3ddbe804	0.10737613
152	0x3d55b4e0	0.05217445
153	0x3d7b63f8	0.061374635
154	0xbcd29e8c	-0.025710367
155	0xbd9aa28a	-0.07550533
156	0xbdc8ce74	-0.09805003
157	0x3d71c764	0.059028044
158	0xbd9eb58c	-0.07749471
159	0x3dd2a586	0.10285477
160	0xbd83f9d9	-0.06444139
161	0xbd5531b2	-0.052049346
162	0x3d04d11c	0.032425985
163	0x3d1a9d58	0.03774771
164	0xbd284d54	-0.04108937
165	0x3d8f5bec	0.069999546
166	0xbdd3af1f	-0.10336136
167	0x3dc1b962	0.09459187
168	0xbdb38308	-0.087652266
169	0xbdd5091c	-0.10402128
170	0x3dfe5802	0.1241913
171	0x3c871d40	0.01649344
172	0x3c33c550	0.010972336
173	0x3c874330	0.01651153
174	0xbd33307c	-0.04374741
175	0xbbbd6a00	-0.0057804585
176	0xbc21a270	-0.009865388
177	0xbdb6b636	-0.08921473
178	0xbd8d00d2	-0.06884922
179	0xbd9995cb	-0.07499274
180	0x3daffa38	0.08592647
181	0x3dba609c	0.09100458
182	0x3cc6d878	0.024273142
183	0xbdb1be0b	-0.08678826
184	0x3d356584	0.044286266
185	0xbdded165	-0.108797826
186	0x3d9dc5dc	0.07703754
187	0x3d86124a	0.06546457
188	0x3dceb59c	0.10093233
189	0xbdf1874a	-0.117933825
190	0xbd8a6a3b	-0.06758543
191	0xbded7d2e	-0.11596142
192	0x3db95942	0.09050228
193	0x3da1877e	0.07887171
194	0xbcea6518	-0.028612658
195	0xbd85314d	-0.06503544
196	0xbdbfb00e	-0.09359752
197	0x3dfeb69e	0.12437175
198	0x3d97c980	0.0741148
199	0xbd715054	-0.058914497
200	0x3ddb6f04	0.10714534
201	0x3c4761c0	0.0121693015
202	0x3d5e18b4	0.054222777
203	0xbdad57e8	-0.084640324
204	0xbcbe0e00	-0.023200035
205	0xbdacfc7a	-0.084465936
206	0x3c62abd0	0.013834909
207	0xbe03b7b5	-0.12863047
208	0x3cb071e0	0.021538675
209	0xbdb393a2	-0.08768393
210	0xbd727c00	-0.059200287
211	0xbd3c8532	-0.046025462
212	0xbc70a290	-0.014687195
213	0x3dfa44de	0.122201666
214	0xbda98e4e	-0.082790956
215	0xbc9c0d98	-0.01904945
216	0x3de341ae	0.11096512
217	0x3d5fc388	0.054629833
218	0xbdbf883c	-0.093521565
219	0x3da04344	0.0782533
220	0xb9c70800	-0.00037962198
221	0xbd1b4ee2	-0.037917025
222	0xbbe06b90	-0.00684876
223	0x3c856be8	0.016286805
224	0xbda6d620	-0.0814631
225	0x3de9f302	0.11423303
226	0x3d0f68c0	0.035012007
227	0xbcd99a28	-0.026562765
228	0xbdeb27f9	-0.114822336
229	0x3dbb0862	0.09132458
230	0xbc80a868	-0.015705302
231	0xbdffd0fc	-0.124910325
232	0x3cd6d738	0.026225671
233	0xbd41cbee	-0.047313623
234	0x3d27be68	0.04095307
235	0xbbfd5fb0	-0.007732354
236	0xbd168fcc	-0.03675823
237	0x3dfc1306	0.12308316
238	0xbdbb1ec0	-0.091367245
239	0x3daa2bfa	0.08309169

att_encoder.encoder_attn.weight f4 [1, 125]
0	0xbd64a0d0	-0.055817425
1	0x3d59ffd2	0.053222485
2	0xbdb6ffe6	-0.089355275
3	0xbd183886	-0.03716328
4	0x3c6c2c6a	0.014414886
5	0xbd59b357	-0.053149547
6	0x3d936f54	0.071989685
7	0x3c883a41	0.01662934
8	0xbd5fc7a1	-0.05463374
9	0x3d8080b1	0.06274546
10	0xbc2bd4b0	-0.01048772
11	0xbd756edb	-0.059920173
12	0x3cfcc2e0	0.030854642
13	0xbd88e421	-0.06684137
14	0xbd678d88	-0.05653146
15	0x3d6cc391	0.057803694
16	0x3c000d38	0.007815652
17	0x3b78de42	0.0037974273
18	0x3d9b7b08	0.07591826
19	0x3cb90589	0.022585647
20	0x3d55beb8	0.052183837
21	0x3c9b9bd4	0.018995203
22	0x3d2bbf48	0.041930467
23	0x3b2fb682	0.0026811664
24	0xbd13f8c4	-0.036125913
25	0xbc0db7d7	-0.008649788
26	0xbd291782	-0.041282184
27	0xbd0bd718	-0.034140676
28	0xbd114dc6	-0.03547456
29	0x3d7ae5db	0.061254364
30	0xbd1e1079	-0.03858993
31	0xbd572a72	-0.052530713
32	0x3daa7d1f	0.08324646
33	0xbda882c2	-0.08228065
34	0x3d9cf794	0.07664409
35	0xbd07ad97	-0.033124533
36	0xbdb4f01f	-0.08834862
37	0xbd0c4397	-0.034244146
38	0x3d732fc5	0.05937173
39	0xbd8de47f	-0.06928348
40	0x3d622b81	0.05521727
41	0xbd2be73f	-0.04196858
42	0xbcac8764	-0.021060653
43	0x3c2d3641	0.010572017
44	0xbd9c8807	-0.07643133
45	0x3d67dbdb	0.056606155
46	0x3d85e5ec	0.06537995
47	0x3d5bfad4	0.053706005
48	0xbbeb6710	-0.007183917
49	0xbd2fef6d	-0.042952944
50	0xba5f0aa8	-0.0008508363
51	0x3da9643e	0.08271073
52	0x3d92757c	0.071513146
53	0x3d005fe6	0.031341456
54	0x3d907b84	0.07054809
55	0x3d57677c	0.052588925
56	0x3bea0a69	0.0071423543
57	0xbd05bd1d	-0.032651056
58	0xbdaf4bd3	-0.08559384
59	0xbd415f48	-0.047210008
60	0xbdbce286	-0.092228934
61	0xbd14acf4	-0.036297753
62	0x3dafe340	0.085882664
63	0xbd7a6c91	-0.061138693
64	0xbcb0d140	-0.021584153
65	0xbcf709c3	-0.030156022
66	0xbdb57637	-0.08860438
67	0xbd3b6037	-0.045746055
68	0xbd941b74	-0.07231799
69	0x3d1bf567	0.03807583
70	0x3b711762	0.003678762
71	0xbd222f6c	-0.039596006
72	0x3d4ba5ea	0.049718775
73	0x3d7921ea	0.06082336
74	0xbd42a248	-0.047518045
75	0xbda0a93f	-0.07844781
76	0xbd663958	-0.05620703
77	0x3c978266	0.018494796
78	0xbd8a3a4f	-0.06749403
79	0xbd8ada77	-0.0677995
80	0xbd3de884	-0.046364322
81	0x3d9d0a8e	0.07668029
82	0x3d24da90	0.0402475
83	0x3d107a28	0.035272747
84	0xbd73f0b2	-0.059555717
85	0x3d7f42b7	0.062319484
86	0x3d11bb40	0.035578966
87	0x3daa8f34	0.08328095
88	0xbcada0e7	-0.021194888
89	0x3dacba10	0.08433926
90	0xbd83fb97	-0.06444471
91	0xbc535743	-0.012899223
92	0x3dad27ac	0.084548324
93	0xbd878ed7	-0.066190414
94	0xbd9e5d22	-0.077326074
95	0xbcc2be85	-0.023772487
96	0xbdb3b235	-0.08774225
97	0x3cb45cf2	0.022016976
98	0xbdb86f25	-0.09005574
99	0xbd2dff86	-0.042480014
100	0xbd86d76f	-0.065840594
101	0xbd87e7a3	-0.06635978
102	0xbd8a2eb2	-0.06747188
103	0x3d17bb18	0.03704366
104	0xbd6ea603	-0.05826379
105	0x3d95183b	0.07280012
106	0x3d958f9d	0.07302783
107	0xbd901508	-0.070352614
108	0xbd288b79	-0.041148636
109	0x3d83fd0a	0.06444748
110	0x3dbe41d1	0.09289897
111	0x3d073d28	0.033017308
112	0xbd3b1d58	-0.04568228
113	0x3c0802f2	0.0083014835
114	0xbbc85a1d	-0.006114258
115	0xbc69a059	-0.014259421
116	0x3d18396b	0.037164133
117	0xbd83321b	-0.06406041
118	0xbd5ae601	-0.053442005
119	0xbc3f96a3	-0.011693629
120	0xbd9d10bb	-0.07669207
121	0x3d666dd2	0.056257077
122	0x3c95f0f0	0.018303365
123	0xbd9735b0	-0.07383287
124	0xbd41bd58	-0.047299713
